…
","U_net = U_net_arch((*input_shape,3))\n","\n","U_net.compile(optimizer=RMSprop(), loss='mean_squared_error') #msse\n","\n","U_net.summary()\n","\n","\n","\n","\n"],"execution_count":3,"outputs":[{"output_type":"stream","text":["Model: \"functional_1\"\n","__________________________________________________________________________________________________\n","Layer (type)                    Output Shape         Param #     Connected to                     \n","==================================================================================================\n","input_2 (InputLayer)            [(None, 288, 432, 3) 0                                            \n","__________________________________________________________________________________________________\n","block_1_conv1_contract (Conv2D) (None, 288, 432, 32) 896         input_2[0][0]                    \n","__________________________________________________________________________________________________\n","batch_normalization (BatchNorma (None, 288, 432, 32) 128         block_1_conv1_contract[0][0]     \n","__________________________________________________________________________________________________\n","block_1_conv2_contract (Conv2D) (None, 288, 432, 32) 9248        batch_normalization[0][0]        \n","__________________________________________________________________________________________________\n","block_1_conv_bn_contract (Batch (None, 288, 432, 32) 128         block_1_conv2_contract[0][0]     \n","__________________________________________________________________________________________________\n","block_1_dropout_contract (Dropo (None, 288, 432, 32) 0           block_1_conv_bn_contract[0][0]   \n","__________________________________________________________________________________________________\n","block_1_lrelu_contract (LeakyRe (None, 288, 432, 32) 0           block_1_dropout_contract[0][0]   \n","__________________________________________________________________________________________________\n","block_1_max_pool (MaxPooling2D) (None, 144, 216, 32) 0           block_1_lrelu_contract[0][0]     \n","__________________________________________________________________________________________________\n","block_2_conv1_contract (Conv2D) (None, 144, 216, 64) 18496       block_1_max_pool[0][0]           \n","__________________________________________________________________________________________________\n","batch_normalization_1 (BatchNor (None, 144, 216, 64) 256         block_2_conv1_contract[0][0]     \n","__________________________________________________________________________________________________\n","block_2_conv2_contract (Conv2D) (None, 144, 216, 64) 36928       batch_normalization_1[0][0]      \n","__________________________________________________________________________________________________\n","block_2_conv_bn_contract (Batch (None, 144, 216, 64) 256         block_2_conv2_contract[0][0]     \n","__________________________________________________________________________________________________\n","block_2_dropout_contract (Dropo (None, 144, 216, 64) 0           block_2_conv_bn_contract[0][0]   \n","__________________________________________________________________________________________________\n","block_2_lrelu_contract (LeakyRe (None, 144, 216, 64) 0           block_2_dropout_contract[0][0]   \n","__________________________________________________________________________________________________\n","block_2_max_pool (MaxPooling2D) (None, 72, 108, 64)  0           block_2_lrelu_contract[0][0]     \n","__________________________________________________________________________________________________\n","block_3_conv1_contract (Conv2D) (None, 72, 108, 128) 73856       block_2_max_pool[0][0]           \n","__________________________________________________________________________________________________\n","batch_normalization_2 (BatchNor (None, 72, 108, 128) 512         block_3_conv1_contract[0][0]     \n","__________________________________________________________________________________________________\n","block_3_conv2_contract (Conv2D) (None, 72, 108, 128) 147584      batch_normalization_2[0][0]      \n","__________________________________________________________________________________________________\n","block_3_conv_bn_contract (Batch (None, 72, 108, 128) 512         block_3_conv2_contract[0][0]     \n","__________________________________________________________________________________________________\n","block_3_dropout_contract (Dropo (None, 72, 108, 128) 0           block_3_conv_bn_contract[0][0]   \n","__________________________________________________________________________________________________\n","block_3_lrelu_contract (LeakyRe (None, 72, 108, 128) 0           block_3_dropout_contract[0][0]   \n","__________________________________________________________________________________________________\n","block_3_max_pool (MaxPooling2D) (None, 36, 54, 128)  0           block_3_lrelu_contract[0][0]     \n","__________________________________________________________________________________________________\n","block_4_conv1_contract (Conv2D) (None, 36, 54, 256)  295168      block_3_max_pool[0][0]           \n","__________________________________________________________________________________________________\n","batch_normalization_3 (BatchNor (None, 36, 54, 256)  1024        block_4_conv1_contract[0][0]     \n","__________________________________________________________________________________________________\n","block_4_conv2_contract (Conv2D) (None, 36, 54, 256)  590080      batch_normalization_3[0][0]      \n","__________________________________________________________________________________________________\n","block_4_conv_bn_contract (Batch (None, 36, 54, 256)  1024        block_4_conv2_contract[0][0]     \n","__________________________________________________________________________________________________\n","block_4_dropout_contract (Dropo (None, 36, 54, 256)  0           block_4_conv_bn_contract[0][0]   \n","__________________________________________________________________________________________________\n","block_4_lrelu_contract (LeakyRe (None, 36, 54, 256)  0           block_4_dropout_contract[0][0]   \n","__________________________________________________________________________________________________\n","block_4_max_pool (MaxPooling2D) (None, 18, 27, 256)  0           block_4_lrelu_contract[0][0]     \n","__________________________________________________________________________________________________\n","block_5_conv1_contract (Conv2D) (None, 18, 27, 512)  1180160     block_4_max_pool[0][0]           \n","__________________________________________________________________________________________________\n","batch_normalization_4 (BatchNor (None, 18, 27, 512)  2048        block_5_conv1_contract[0][0]     \n","__________________________________________________________________________________________________\n","block_5_conv2_contract (Conv2D) (None, 18, 27, 512)  2359808     batch_normalization_4[0][0]      \n","__________________________________________________________________________________________________\n","block_5_conv_bn_contract (Batch (None, 18, 27, 512)  2048        block_5_conv2_contract[0][0]     \n","__________________________________________________________________________________________________\n","block_5_dropout_contract (Dropo (None, 18, 27, 512)  0           block_5_conv_bn_contract[0][0]   \n","__________________________________________________________________________________________________\n","block_5_lrelu_contract (LeakyRe (None, 18, 27, 512)  0           block_5_dropout_contract[0][0]   \n","__________________________________________________________________________________________________\n","flatten_bottleneck (Flatten)    (None, 248832)       0           block_5_lrelu_contract[0][0]     \n","__________________________________________________________________________________________________\n","reshape_flatten (Reshape)       (None, 18, 27, 512)  0           flatten_bottleneck[0][0]         \n","__________________________________________________________________________________________________\n","block_6_trans_conv2d_expand (Co (None, 36, 54, 256)  524544      reshape_flatten[0][0]            \n","__________________________________________________________________________________________________\n","batch_normalization_5 (BatchNor (None, 36, 54, 256)  1024        block_6_trans_conv2d_expand[0][0]\n","__________________________________________________________________________________________________\n","block_6_concatenate_expand (Con (None, 36, 54, 512)  0           batch_normalization_5[0][0]      \n","                                                                 block_4_lrelu_contract[0][0]     \n","__________________________________________________________________________________________________\n","block_6_conv2d_1_expand (Conv2D (None, 36, 54, 256)  1179904     block_6_concatenate_expand[0][0] \n","__________________________________________________________________________________________________\n","batch_normalization_6 (BatchNor (None, 36, 54, 256)  1024        block_6_conv2d_1_expand[0][0]    \n","__________________________________________________________________________________________________\n","block_6_conv2d_2_expand (Conv2D (None, 36, 54, 256)  590080      batch_normalization_6[0][0]      \n","__________________________________________________________________________________________________\n","block_6_conv_bn_expand (BatchNo (None, 36, 54, 256)  1024        block_6_conv2d_2_expand[0][0]    \n","__________________________________________________________________________________________________\n","block_6_lrelu_expand (LeakyReLU (None, 36, 54, 256)  0           block_6_conv_bn_expand[0][0]     \n","__________________________________________________________________________________________________\n","block_6_dropout_expand (Dropout (None, 36, 54, 256)  0           block_6_lrelu_expand[0][0]       \n","__________________________________________________________________________________________________\n","block_7_trans_conv2d_expand (Co (None, 72, 108, 128) 131200      block_6_dropout_expand[0][0]     \n","__________________________________________________________________________________________________\n","batch_normalization_7 (BatchNor (None, 72, 108, 128) 512         block_7_trans_conv2d_expand[0][0]\n","__________________________________________________________________________________________________\n","block_7_concatenate_expand (Con (None, 72, 108, 256) 0           batch_normalization_7[0][0]      \n","                                                                 block_3_lrelu_contract[0][0]     \n","__________________________________________________________________________________________________\n","block_7_conv2d_1_expand (Conv2D (None, 72, 108, 128) 295040      block_7_concatenate_expand[0][0] \n","__________________________________________________________________________________________________\n","batch_normalization_8 (BatchNor (None, 72, 108, 128) 512         block_7_conv2d_1_expand[0][0]    \n","__________________________________________________________________________________________________\n","block_7_conv2d_2_expand (Conv2D (None, 72, 108, 128) 147584      batch_normalization_8[0][0]      \n","__________________________________________________________________________________________________\n","block_7_conv_bn_expand (BatchNo (None, 72, 108, 128) 512         block_7_conv2d_2_expand[0][0]    \n","__________________________________________________________________________________________________\n","block_7_lrelu_expand (LeakyReLU (None, 72, 108, 128) 0           block_7_conv_bn_expand[0][0]     \n","__________________________________________________________________________________________________\n","block_7_dropout_expand (Dropout (None, 72, 108, 128) 0           block_7_lrelu_expand[0][0]       \n","__________________________________________________________________________________________________\n","block_8_trans_conv2d_expand (Co (None, 144, 216, 64) 32832       block_7_dropout_expand[0][0]     \n","__________________________________________________________________________________________________\n","batch_normalization_9 (BatchNor (None, 144, 216, 64) 256         block_8_trans_conv2d_expand[0][0]\n","__________________________________________________________________________________________________\n","block_8_concatenate_expand (Con (None, 144, 216, 128 0           batch_normalization_9[0][0]      \n","                                                                 block_2_lrelu_contract[0][0]     \n","__________________________________________________________________________________________________\n","block_8_conv2d_1_expand (Conv2D (None, 144, 216, 64) 73792       block_8_concatenate_expand[0][0] \n","__________________________________________________________________________________________________\n","batch_normalization_10 (BatchNo (None, 144, 216, 64) 256         block_8_conv2d_1_expand[0][0]    \n","__________________________________________________________________________________________________\n","block_8_conv2d_2_expand (Conv2D (None, 144, 216, 64) 36928       batch_normalization_10[0][0]     \n","__________________________________________________________________________________________________\n","block_8_conv_bn_expand (BatchNo (None, 144, 216, 64) 256         block_8_conv2d_2_expand[0][0]    \n","__________________________________________________________________________________________________\n","block_8_lrelu_expand (LeakyReLU (None, 144, 216, 64) 0           block_8_conv_bn_expand[0][0]     \n","__________________________________________________________________________________________________\n","block_8_dropout_expand (Dropout (None, 144, 216, 64) 0           block_8_lrelu_expand[0][0]       \n","__________________________________________________________________________________________________\n","block_9_trans_conv2d_expand (Co (None, 288, 432, 32) 8224        block_8_dropout_expand[0][0]     \n","__________________________________________________________________________________________________\n","batch_normalization_11 (BatchNo (None, 288, 432, 32) 128         block_9_trans_conv2d_expand[0][0]\n","__________________________________________________________________________________________________\n","block_9_concatenate_expand (Con (None, 288, 432, 64) 0           batch_normalization_11[0][0]     \n","                                                                 block_1_lrelu_contract[0][0]     \n","__________________________________________________________________________________________________\n","block_9_conv2d_1_expand (Conv2D (None, 288, 432, 32) 18464       block_9_concatenate_expand[0][0] \n","__________________________________________________________________________________________________\n","batch_normalization_12 (BatchNo (None, 288, 432, 32) 128         block_9_conv2d_1_expand[0][0]    \n","__________________________________________________________________________________________________\n","block_9_conv2d_2_expand (Conv2D (None, 288, 432, 32) 9248        batch_normalization_12[0][0]     \n","__________________________________________________________________________________________________\n","block_9_conv_bn_expand (BatchNo (None, 288, 432, 32) 128         block_9_conv2d_2_expand[0][0]    \n","__________________________________________________________________________________________________\n","block_9_lrelu_expand (LeakyReLU (None, 288, 432, 32) 0           block_9_conv_bn_expand[0][0]     \n","__________________________________________________________________________________________________\n","block_9_dropout_expand (Dropout (None, 288, 432, 32) 0           block_9_lrelu_expand[0][0]       \n","__________________________________________________________________________________________________\n","conv2d (Conv2D)                 (None, 288, 432, 3)  99          block_9_dropout_expand[0][0]     \n","==================================================================================================\n","Total params: 7,773,859\n","Trainable params: 7,767,011\n","Non-trainable params: 6,848\n","__________________________________________________________________________________________________\n"],"name":"stdout"}]},{"cell_type":"code","metadata":{"id
…
)\n","total_model.compile(loss='categorical_crossentropy', optimizer=SGD(),\tmetrics=[\"accuracy\"])\n","total_model.summary()"],"execution_count":8,"outputs":[{"output_type":"stream","text":["Model: \"functional_3\"\n","_________________________________________________________________\n","Layer (type)                 Output Shape              Param #   \n","=================================================================\n","input_2 (InputLayer)         [(None, 288, 432, 3)]     0         \n","_________________________________________________________________\n","block_1_conv1_contract (Conv (None, 288, 432, 32)      896       \n","_________________________________________________________________\n","batch_normalization (BatchNo (None, 288, 432, 32)      128       \n","_________________________________________________________________\n","block_1_conv2_contract (Conv (None, 288, 432, 32)      9248      \n","_________________________________________________________________\n","block_1_conv_bn_contract (Ba (None, 288, 432, 32)      128       \n","_________________________________________________________________\n","block_1_dropout_contract (Dr (None, 288, 432, 32)      0         \n","_________________________________________________________________\n","block_1_lrelu_contract (Leak (None, 288, 432, 32)      0         \n","_________________________________________________________________\n","block_1_max_pool (MaxPooling (None, 144, 216, 32)      0         \n","_________________________________________________________________\n","block_2_conv1_contract (Conv (None, 144, 216, 64)      18496     \n","_________________________________________________________________\n","batch_normalization_1 (Batch (None, 144, 216, 64)      256       \n","_________________________________________________________________\n","block_2_conv2_contract (Conv (None, 144, 216, 64)      36928     \n","_________________________________________________________________\n","block_2_conv_bn_contract (Ba (None, 144, 216, 64)      256       \n","_________________________________________________________________\n","block_2_dropout_contract (Dr (None, 144, 216, 64)      0         \n","_________________________________________________________________\n","block_2_lrelu_contract (Leak (None, 144, 216, 64)      0         \n","_________________________________________________________________\n","block_2_max_pool (MaxPooling (None, 72, 108, 64)       0         \n","_________________________________________________________________\n","block_3_conv1_contract (Conv (None, 72, 108, 128)      73856     \n","_________________________________________________________________\n","batch_normalization_2 (Batch (None, 72, 108, 128)      512       \n","_________________________________________________________________\n","block_3_conv2_contract (Conv (None, 72, 108, 128)      147584    \n","_________________________________________________________________\n","block_3_conv_bn_contract (Ba (None, 72, 108, 128)      512       \n","_________________________________________________________________\n","block_3_dropout_contract (Dr (None, 72, 108, 128)      0         \n","_________________________________________________________________\n","block_3_lrelu_contract (Leak (None, 72, 108, 128)      0         \n","_________________________________________________________________\n","block_3_max_pool (MaxPooling (None, 36, 54, 128)       0         \n","_________________________________________________________________\n","block_4_conv1_contract (Conv (None, 36, 54, 256)       295168    \n","_________________________________________________________________\n","batch_normalization_3 (Batch (None, 36, 54, 256)       1024      \n","_________________________________________________________________\n","block_4_conv2_contract (Conv (None, 36, 54, 256)       590080    \n","_________________________________________________________________\n","block_4_conv_bn_contract (Ba (None, 36, 54, 256)       1024      \n","_________________________________________________________________\n","block_4_dropout_contract (Dr (None, 36, 54, 256)       0         \n","_________________________________________________________________\n","block_4_lrelu_contract (Leak (None, 36, 54, 256)       0         \n","_________________________________________________________________\n","block_4_max_pool (MaxPooling (None, 18, 27, 256)       0         \n","_________________________________________________________________\n","block_5_conv1_contract (Conv (None, 18, 27, 512)       1180160   \n","_________________________________________________________________\n","batch_normalization_4 (Batch (None, 18, 27, 512)       2048      \n","_________________________________________________________________\n","block_5_conv2_contract (Conv (None, 18, 27, 512)       2359808   \n","_________________________________________________________________\n","block_5_conv_bn_contract (Ba (None, 18, 27, 512)       2048      \n","_________________________________________________________________\n","block_5_dropout_contract (Dr (None, 18, 27, 512)       0         \n","_________________________________________________________________\n","block_5_lrelu_contract (Leak (None, 18, 27, 512)       0         \n","_________________________________________________________________\n","flatten_bottleneck (Flatten) (None, 248832)            0         \n","_________________________________________________________________\n","reshape (Reshape)            (None, 18, 27, 512)       0         \n","_________________________________________________________________\n","average_pooling2d (AveragePo (None, 9, 13, 512)        0         \n","_________________________________________________________________\n","flatten (Flatten)            (None, 59904)             0         \n","_________________________________________________________________\n","dense (Dense)                (None, 8192)              490741760 \n","_________________________________________________________________\n","dense_1 (Dense)              (None, 4096)              33558528  \n","_________________________________________________________________\n","MLP_512 (Dense)              (None, 512)               2097664   \n","_________________________________________________________________\n","MLP_128 (Dense)              (None, 128)               65664     \n","_________________________________________________________________\n","dropout_MLP (Dropout)        (None, 128)               0         \n","_________________________________________________________________\n","output (Dense)               (None, 5)                 645       \n","=================================================================\n","Total params: 531,184,421\n","Trainable params: 526,464,261\n","Non-trainable params: 4,720,160\n","_________________________________________________________________\n"],"name":"stdout"}]},{"cell_type":"code","metadata":{"id":"u5tPpz8g5WnW","executionInfo":{"status":"ok","timestamp":1602524819971,"user_tz":-330,"elap
…
